going_modular/models/05_going_modular_cell_mode_tinyvgg_model.pth (torch, 36691 bytes, 10 tensors)

conv_block_1.0.weight f4 [10, 3, 3, 3]
000000 40 08 16 3e 5b eb 22 3e f2 13 41 bd a5 cd 33 3e
       0.14651585 0.15910093 -0.047138162 0.17558916
000010 9c 4a 30 bd f7 a2 19 3d d5 c0 c2 bd c0 11 e4 3d
       -0.043039903 0.03750893 -0.09509436 0.11136198
000020 12 00 2b 3e 6a 7d 30 be 61 6a 0d 3e fb f2 65 3b
       0.16699246 -0.17235342 0.13810112 0.0035087455
000030 46 0e e2 3d e2 32 19 bb bd 9c 81 3d 02 de 7b bd
       0.11037879 -0.0023376276 0.063287236 -0.06149102
000040 d3 ed ea 3d 74 5a c1 bb 8a 79 b4 bd 08 a6 5e 3d
       0.114711426 -0.0059006754 -0.08812244 0.05435756
000050 69 1d b3 bd 5b ca be bc ad 97 96 bd df c2 05 3e
       -0.08745844 -0.02328985 -0.073531486 0.13062619
000060 b2 6e 21 be e7 7f bf bd c7 ec 75 bd c8 f2 4f bd
       -0.15764883 -0.09350567 -0.06004026 -0.050768644
000070 65 b8 a9 3d 29 26 00 be 80 77 72 3e 7b 25 cc bd
       0.082871236 -0.12514557 0.23678398 -0.09968086
000080 6e e7 5a 3e fe 49 bf 3d 86 25 3c ba ba 59 3a 3e
       0.21377346 0.09340285 -0.0007177222 0.1819829
000090 e9 69 4c 3d 25 1a 32 3e 2f 9c 20 3d b2 01 38 bd
       0.04990569 0.17392786 0.03921145 -0.04492349
0000a0 59 70 87 3d 77 73 13 bd 91 a4 bf 3d c7 8e 3c 3e
       0.066132255 -0.035998788 0.093575604 0.1841384
0000b0 01 d4 00 3e 80 e6 c7 bc 1f 84 2b 3e 1d 89 b8 3d
       0.12580873 -0.024401903 0.16749619 0.09010527
0000c0 d0 cf 1b 3e 8f 64 88 bd 48 71 0d be ae c2 ce bc
       0.15215993 -0.06659805 -0.13812745 -0.025239315
0000d0 3c 33 cd bd 61 82 54 3e 8b 2c 65 3c d9 f3 22 3d
       -0.10019538 0.2075286 0.013987671 0.039783332
0000e0 af f1 a0 3c cf 78 38 bd cb cd e3 3d 1e c9 33 be
       0.019646494 -0.045037087 0.11123236 -0.17557189
0000f0 77 a2 f3 bc a6 ff 2f be c5 07 a7 3c 21 a3 aa bd
       -0.029740555 -0.17187366 0.020389447 -0.083318956
000100 21 23 3a 3d 75 3e 66 bd 0d 4a 10 3e 83 23 05 be
       0.045443658 -0.056211907 0.14090748 -0.13001828
000110 45 b9 05 be d3 85 09 be 6b 3a 1e 3e 7c c6 3f 3d
       -0.13058956 -0.13429956 0.15451972 0.04682015
000120 81 10 19 3e d1 a2 41 be cd 74 65 be bc 54 3f be
       0.14947702 -0.18909766 -0.22407837 -0.18684667
000130 5a 34 25 be 78 77 3a 3d 0a 1e 07 3d a6 2e 01 3e
       -0.16133252 0.04552409 0.03298763 0.12615451
000140 03 1e 08 be c9 f9 1f be d7 6c 99 3d 47 ad da bd
       -0.13292699 -0.15622629 0.07491463 -0.10677581
000150 e0 f7 bf 3d 10 e4 8e bd a8 77 ab 3d be 30 2f be
       0.0937345 -0.06977093 0.08372432 -0.17108437
000160 94 ac f4 bd ad fb 0a 3d 8f 0a 8d 3d 60 68 b7 bc
       -0.11946979 0.033931423 0.068867795 -0.022388637
000170 6c d6 0a 3e ae dc 26 3e 79 45 d8 bd d1 43 98 bd
       0.13558358 0.1629512 -0.10560126 -0.0743481
000180 71 b6 55 3e 17 ea 00 bd 3c c8 21 bd 62 9c 48 be
       0.20870377 -0.031473245 -0.0394976 -0.19590905
000190 a7 f9 f3 bd f3 0b db 3c fe 89 f5 bc 7e 47 0e be
       -0.11912852 0.026739096 -0.029973026 -0.1389446
0001a0 b1 76 55 bb 62 53 07 be 32 1d 23 be d3 a7 de bd
       -0.0032571966 -0.13215402 -0.15929106 -0.10871854
0001b0 9f 44 1e be 85 ae e1 bd 49 41 42 3e 92 02 43 3d
       -0.15455864 -0.11019615 0.18970217 0.047609873
0001c0 fa c3 8c 3d 6d 2e 38 be 95 93 f4 bd 36 2d 6a bd
       0.06873317 -0.1798646 -0.119422115 -0.057172023
0001d0 62 e0 fc 3c 24 28 0e be 63 8f 6a bd cb cd e0 bd
       0.030868713 -0.138825 -0.05726565 -0.10976752
0001e0 6a af ed 3c c1 fe 4b bd 72 3b b8 bb 18 27 db bd
       0.029014308 -0.0498035 -0.005622321 -0.10700816
0001f0 f4 41 e4 bd 2f 5c cd bd 93 a2 92 bd ae 55 29 be
       -0.11145392 -0.10027348 -0.07159915 -0.1653659
000200 34 5f 06 3e d7 90 35 bd 73 ac 19 3e 3c ec 04 3d
       0.13122255 -0.044327583 0.1500719 0.032451853
000210 4e 5d 2b be ff ad fb 3d 9f 01 8f bd 6b cb cd bd
       -0.16734812 0.122890465 -0.06982731 -0.100485645
000220 18 ab 3f be 44 2b 63 be ca 1a 08 3d 5e 88 80 bd
       -0.18717611 -0.22184473 0.033228673 -0.0627601
000230 fc b9 53 3d 97 49 3a be 19 c7 f3 3d c1 d4 27 be
       0.05169104 -0.18192135 0.11903209 -0.16389753
000240 a1 80 74 bd cb 62 59 3c 8e f1 8a 3d 8b e0 06 3e
       -0.059692983 0.013268183 0.06784354 0.13171594
000250 cf 21 1e 3e fb c1 35 be 75 c9 b0 3c a0 79 db bd
       0.15442584 -0.17749779 0.021580437 -0.107165575
000260 7b 0b 3f bd a5 9f 2f be b9 01 19 3e 3d f5 2f be
       -0.046641808 -0.17150743 0.14942063 -0.17183395
000270 7f 7f a1 3d 89 33 42 3d 9b 51 14 3d eb a5 06 be
       0.07885646 0.04741243 0.036210638 -0.1314923
000280 d4 b8 19 3e 97 84 61 3c 3c 60 55 3c 31 5d 3a be
       0.15011913 0.013764522 0.013023432 -0.18199612
000290 0e 19 8c 3d d5 b0 01 bd a2 4b c2 bd 3f 71 1c 3e
       0.06840716 -0.03166278 -0.09487082 0.15277575
0002a0 0c f3 27 3d 59 cf e0 bd d1 b0 d7 bd 8a f3 99 bc
       0.041003272 -0.109770484 -0.10531772 -0.018792886
0002b0 f3 9c c7 3d 84 21 72 bd ff dc e1 bd fd b5 8e bd
       0.097467326 -0.059113994 -0.1102848 -0.06968305
0002c0 43 9e 1d be 4a 4f 8c 3d a5 b4 17 3e 1e 32 40 be
       -0.15392403 0.06851061 0.14815004 -0.18769118
0002d0 e0 07 16 3d 4b bb b9 3d e4 08 d5 3c ff d1 8b bd
       0.036628604 0.090689264 0.026005216 -0.06827163
0002e0 cf a3 c8 3d 92 a0 bd 3d a3 13 95 3d 44 b2 07 bd
       0.09796869 0.09259142 0.07279136 -0.03312899
0002f0 b6 b8 60 bd 37 68 13 bc 46 a9 75 bd ea 39 a4 bd
       -0.054863654 -0.008997015 -0.059975885 -0.08018859
000300 a8 b9 c0 3d fb d9 0e 3e f8 27 2e bd 12 d5 95 bd
       0.09410411 0.1395034 -0.042518586 -0.073160306
000310 a5 ed d6 bc 9d 98 1c bd e7 8e e8 3c 7b a7 1e 3d
       -0.026236365 -0.03823148 0.028388454 0.03873394
000320 8c 96 40 be a3 56 b6 bd f8 5e 16 3e 5c 99 78 3d
       -0.18807429 -0.089032434 0.14684665 0.06069313
000330 5f 44 f0 bc 90 7a 0a be 78 2b 0b be dd f7 3c be
       -0.029329477 -0.13523316 -0.13590801 -0.18453927
000340 6c f5 93 bd d5 46 6a 3d f6 9c df 3d 98 f2 a0 3d
       -0.07224545 0.057196457 0.1091861 0.07858771
000350 27 71 37 be 47 71 05 be c9 cc 38 bd d7 bf 2f 3e
       -0.17914258 -0.13031493 -0.045117173 0.17163025
000360 c7 42 75 3c 0d 5a 84 bd 05 e3 7d 3d d4 55 a4 bd
       0.014969534 -0.06462488 0.06198408 -0.08024183
000370 12 7a 09 be cf c9 02 3e 70 81 ba bd 41 e1 3a bd
       -0.13425472 0.12772296 -0.091067195 -0.045624975
000380 08 dc 4d be 13 8c 13 3e 4d a9 23 3e fc 61 ab 3d
       -0.20103467 0.14408903 0.15982552 0.083682984
000390 43 d9 d9 bd 4b cb 25 be eb 58 06 be ad 9d 2f 3e
       -0.106371425 -0.16190831 -0.13119857 0.17149992
0003a0 4b ae f1 3d 2e 31 3e 3e 08 cc 63 3d 1d 96 7b 3b
       0.11800822 0.18573448 0.0556145 0.0038389035
0003b0 ad 28 3e bd 53 b0 3c be d4 5d 4b be f9 c4 59 be
       -0.04642551 -0.18426637 -0.19860011 -0.21266545
0003c0 a0 46 19 3d 24 96 07 be 4b c1 96 bd 10 d4 e2 bd
       0.03742087 -0.13240868 -0.073610865 -0.11075604
0003d0 74 a4 0f bd 37 b4 0a be 96 c4 00 be 62 bd 82 3d
       -0.035068944 -0.13545309 -0.12574992 0.06383778
0003e0 cc 45 6a bd 7a 51 f3 3d c0 e2 7c bd 33 90 10 be
       -0.05719547 0.11880775 -0.061739683 -0.14117508
0003f0 20 15 0b bd a9 0e bf bd 90 2a 71 bd d5 9b 3b be
       -0.033955693 -0.09328968 -0.05887848 -0.18321164

conv_block_1.0.bias f4 [10]
000000 84 2f a9 3c 95 c6 49 be d9 c5 fa 3d 08 15 5d 3e
       0.02065254 -0.1970466 0.12244768 0.21590054
000010 81 b3 77 3e dc 4c 81 bd 2d 30 2b be e4 02 99 3c
       0.24189569 -0.06313488 -0.16717596 0.018678136
000020 bd 98 2d 3e f7 24 44 be
       0.16952796 -0.19154726

conv_block_1.2.weight f4 [10, 10, 3, 3]
000000 bf 9a 21 bb c7 2a 47 bd ed 67 93 3a cb ce d1 bc
       -0.0024658886 -0.04862478 0.0011246182 -0.025611302
000010 70 83 d3 bc 72 e5 a4 bc e0 37 93 bd 89 df e2 3d
       -0.02581951 -0.02012894 -0.07188392 0.11077792
000020 af 6b d9 3d 11 c3 92 bd f5 4c a8 bd 31 3f cf bd
       0.10616242 -0.07166112 -0.082178034 -0.10119475
000030 a1 14 15 be 91 56 1f be cc 70 a0 bc af a8 d7 bd
       -0.1455865 -0.15560366 -0.019585036 -0.10530221
000040 4e af f2 bd e6 88 82 bd f4 4c fa 38 69 62 92 3b
       -0.11849843 -0.063737676 0.000119352626 0.004467298
000050 43 80 16 3d a9 ab 49 3c d5 f2 b6 3b 9c e1 23 bc
       0.036743414 0.012308993 0.005583147 -0.01000252
000060 1e 84 74 bd 9c e7 f4 3d 03 ee f4 bb 22 af ea 3d
       -0.05969631 0.119582385 -0.0074746623 0.11459185
000070 3c c1 6d 3d 32 b0 ef 3d dc 7e 3a 3e 6f 43 07 3e
       0.05804561 0.117035285 0.18212456 0.13209318
000080 27 63 13 3c 59 d8 04 3e 72 bf 3a 3e 43 c3 f0 3d
       0.008995808 0.12973155 0.18237093 0.11755993
000090 6e fa 12 3e bd 02 3b 3e 42 75 83 3d b9 3d a8 3d
       0.14353344 0.18262763 0.064188495 0.08214898
0000a0 5d 0d 07 3b ac 0b 78 3d 59 fa 10 3e da 61 ff 3d
       0.002060733 0.060558006 0.14158 0.124698356
0000b0 8d 87 16 3c 63 7c c3 bd fa 5b c5 bd 8f 25 21 be
       0.009187591 -0.09545209 -0.09636684 -0.15736984
0000c0 6d bf 06 be 89 e4 7c bd c4 8f 1d 3d c9 3c 7b 3d
       -0.1315896 -0.061741386 0.038467184 0.061337266
0000d0 a4 e4 94 bd 17 b4 a9 bd c9 ca ae 3d 0f 6d 36 bd
       -0.07270172 -0.082863025 0.08534772 -0.0445376
0000e0 be 8c 6d bc ba 1d 4f 3d 65 3f 2d bd c3 29 34 3a
       -0.014498888 0.05056546 -0.042296786 0.0006872678
0000f0 f8 53 16 bc f0 4a cc bc 12 ea 5a bd 69 fb 38 bd
       -0.009175293 -0.024938077 -0.053445883 -0.04516164
000100 7b 06 e4 bc c2 5a 9c bc 71 31 0c 3e 1c a0 2c bc
       -0.027835121 -0.019086245 0.13690735 -0.01053622
000110 01 a9 d9 bc 2e 67 a2 3d 6d be a9 3d f4 a6 c1 3d
       -0.026569845 0.07929836 0.08288274 0.09455672
000120 49 56 25 3e 91 30 1e 3e e2 de f3 b9 a5 9d b5 3d
       0.16146196 0.15448214 -0.00046514632 0.08867959
000130 db 76 18 3e 60 93 a9 3d c9 9a 90 3c 9e 8e 3f 3e
       0.1488909 0.08280063 0.017651932 0.18706748
000140 eb ea 63 3d 6f d1 75 bd 45 a0 c2 bd 60 49 9a 3b
       0.055643957 -0.060014185 -0.09503225 0.004708454
000150 56 53 3f 3d 4c 26 bf 3c 64 c2 aa 3c 23 b8 a3 bd
       0.046710335 0.023333691 0.020844646 -0.07994106
000160 1a 9b c9 bd 80 4b f3 3a c0 16 e7 3d 88 85 9c 3d
       -0.098440364 0.001856193 0.11283636 0.076426566
000170 80 a5 39 bd 1f b5 b4 3b fa 63 73 bd 26 1f 0c bd
       -0.04532385 0.0055147554 -0.059421517 -0.034209393
000180 dd 32 1e 3d b2 6f 9a 3d a9 af d5 3d 6c 54 11 bd
       0.038622726 0.075408354 0.10433895 -0.0354809
000190 f2 51 05 3e db 15 43 bc 34 6e c1 3d fa c5 13 3e
       0.13019541 -0.011907066 0.09444848 0.14430991
0001a0 23 d7 59 3d bc e8 15 3e 11 63 1f bd 94 f5 db 3b
       0.053183686 0.14639562 -0.038912836 0.006712625
0001b0 a0 bf 77 3d b8 d6 bd bc 82 cb a0 bc fd 88 26 bd
       0.060485482 -0.023173675 -0.01962829 -0.040657986
0001c0 4a 3d a0 3d af df 69 3d 56 84 21 3d 93 58 6a bd
       0.0782419 0.057098087 0.039432846 -0.057213377
0001d0 b5 85 b4 bd 8a 22 9d bd 14 89 5b bd e6 65 0a be
       -0.08814565 -0.076726034 -0.053597525 -0.13515434
0001e0 d2 fb e1 bd 3c 2e 0d bc 33 ad a0 bd 8b a5 a3 bd
       -0.11034359 -0.00861698 -0.07845535 -0.07990559
0001f0 94 80 dc bd e8 0e 36 be 37 1e 3f be 55 d1 07 be
       -0.10766712 -0.17779124 -0.1866387 -0.13263448
000200 21 b3 18 be 91 ab 63 bd a0 d0 01 be cb 49 1a be
       -0.14912082 -0.05558354 -0.1267724 -0.15067212
000210 bc 3c 9f 3a e1 26 82 bd 42 39 ce bc 9f c4 df bc
       0.0012148838 -0.06355072 -0.025173787 -0.027315436
000220 7b cd 1f bd 2e 6d 32 3d 6f ad 77 bd 1a ba 93 bd
       -0.03901432 0.043561153 -0.060468134 -0.072132304
000230 ba d8 1d ba 8b a7 fa bc ca 32 7f bd 98 1d 85 3d
       -0.00060213695 -0.030597469 -0.062304296 0.06499785
000240 24 61 9d 3d 10 d4 ed 3c 09 7a 15 bc 8b 66 c6 bd
       0.07684544 0.029031783 -0.009123334 -0.09687527
000250 25 f2 d9 bc 2d 35 aa 3c 2a 3d 05 3d 53 9e 95 bc
       -0.026604721 0.02077731 0.032529034 -0.018263971
000260 51 87 31 bd e4 85 45 3d d4 df aa bd 6d 3f 8e 3d
       -0.04334194 0.04822339 -0.08343473 0.06945691
000270 df ac 6b bd 6e 84 33 bc 80 a8 32 bd 31 ec 8d 3b
       -0.05753791 -0.010956867 -0.043617725 0.0043311347
000280 de a5 25 bd c6 c6 83 3d f0 14 f3 bd 12 c6 c7 bc
       -0.040441386 0.064343974 -0.11869228 -0.02438644
000290 2a 73 be 3b 0e d8 2b be 50 b7 37 be 51 e7 ce bb
       0.0058120685 -0.16781637 -0.17941022 -0.006314196
0002a0 30 9c 4a bc 01 ff 40 be 2a 0e e8 bd 15 e2 d4 bd
       -0.01236634 -0.18847276 -0.113308266 -0.10394684
0002b0 b9 b7 b0 bd f4 c7 a6 3c 64 b9 e5 3c 5c 0c b7 3c
       -0.08628792 0.020359017 0.028042503 0.02234476
0002c0 84 04 eb bc 15 2a c7 3d 30 ed 76 3c d9 c5 7e bd
       -0.028688677 0.097248234 0.015071198 -0.0622004
0002d0 2b 37 eb bc 6e bc 5f 3c 60 b1 c4 3c 7b 65 ca bd
       -0.02871283 0.013655765 0.02401036 -0.09882637
0002e0 4f bd c1 3c 1e 56 8e bd ee e1 ea bd 88 62 96 bd
       0.02364984 -0.06950019 -0.11468874 -0.07343012
0002f0 e3 a4 b6 3d d3 bb 80 3d 86 a4 8e 3d b9 0f 4b 3d
       0.089181684 0.062858246 0.06964974 0.04957554
000300 e1 7d 55 3d be 9c 28 bd 3e 0c 8a bd 9c 67 0d 3d
       0.052122 -0.041165106 -0.06740616 0.034522638
000310 bb 04 95 bd 3e f0 a4 bd de df 09 bd d2 f1 84 3c
       -0.07276293 -0.08053635 -0.033660762 0.01622859
000320 8f 98 0e 3d b1 e5 c4 bc 4d 17 34 bd 13 72 08 bc
       0.03481346 -0.024035307 -0.043967534 -0.008327979
000330 66 2f 81 bd 61 b0 b1 bd c5 cf 16 3d 24 32 96 b9
       -0.06307869 -0.0867622 0.03681924 -0.00028647587
000340 d9 61 a0 3d ef ea ac 3d 2d 39 ce 3c f9 a0 94 3c
       0.07831163 0.084432475 0.025173748 0.018143164
000350 4d 16 c9 3b 1b 31 81 3b b7 fe 8b bc c2 38 d4 bc
       0.0061366917 0.0039426214 -0.017089231 -0.02590597
000360 7e 3a 21 3d 9b b7 c8 3d 84 c9 df bc 9d 82 36 bd
       0.039362423 0.09800645 -0.02731777 -0.044558156
000370 c8 1c d1 bc 8f 6c 8d bd 29 7e 0c 3c 31 44 c6 3d
       -0.02552642 -0.069054715 0.008575001 0.09680975
000380 eb 04 84 3d f6 3a 46 3d 1d df 9e bd c6 b9 67 bd
       0.064462505 0.048396073 -0.07757399 -0.05657365
000390 3c b9 bd bc 8c 2a 9f bc 40 0b 0e 3c 85 2b c6 bd
       -0.023159616 -0.019429468 0.008669674 -0.096762694
0003a0 c2 61 06 3d fb af a4 bd 84 98 88 bd 32 7a b3 bd
       0.032808073 -0.08041378 -0.06669715 -0.08763541
0003b0 51 19 bc 3d 73 6c cc bd ef d9 a2 3d a0 3a 68 bb
       0.09184516 -0.099816225 0.07951724 -0.0035435334
0003c0 d8 d9 48 bc f3 06 87 3d f8 9f 1f bc 8d 63 87 3d
       -0.012258969 0.06593122 -0.009742729 0.06610785
0003d0 49 15 9c 3d 77 6d bb bd 06 22 26 3d 54 03 a3 3c
       0.07621247 -0.09151738 0.04055979 0.019899048
0003e0 54 aa b9 3c 80 21 7c 3c 8c 32 ec 3c 22 b4 4f bd
       0.022664227 0.015388846 0.028832696 -0.050708897
0003f0 0c c7 95 3b 5a f9 a7 3d 05 cf 57 3d 28 14 81 3b
       0.0045708474 0.08201857 0.052687664 0.0039391704

conv_block_1.2.bias f4 [10]
000000 bc 6c 81 3d f0 e2 06 3c 62 22 ef bd f9 f3 ba bd
       0.063195676 0.008232817 -0.1167648 -0.09128565
000010 0c 25 53 bc 9d a0 8e bd 7f 3d 5e bc 6e d3 e5 bc
       -0.012887251 -0.06964228 -0.0135644665 -0.02805492
000020 cb e9 a3 bb e2 ae 35 3d
       -0.0050022355 0.044356234

conv_block_2.0.weight f4 [10, 10, 3, 3]
000000 08 7f 86 bd 73 ea 14 3d 2c b6 83 3d 14 78 f3 bd
       -0.06567198 0.0363564 0.06431231 -0.118881375
000010 0f 8d 3f be a0 2c 06 be 87 77 a1 bd 97 ed 8a bd
       -0.18706153 -0.1310296 -0.07884126 -0.06783598
000020 01 f7 86 bc a5 15 e6 bb 47 87 1e bd de 6e 07 bd
       -0.016475203 -0.007021623 -0.03870323 -0.033064716
000030 e9 57 6f bc 09 ab 05 3e da 51 e9 bc 79 a2 6a bd
       -0.014608362 0.13053526 -0.028481413 -0.057283852
000040 e7 16 81 3d b4 8e 24 3b f6 fd 9b 3d 3d e3 43 3d
       0.063031964 0.0025109472 0.076167986 0.047824133
000050 b3 2c 92 3d 52 32 8d bd ab bc 62 3d 24 d1 90 3d
       0.07137432 -0.068943635 0.05535571 0.070711404
000060 77 0d 77 bd 67 a6 f7 3d bb 86 8b 3d 96 58 1b bc
       -0.060315575 0.120922856 0.06812807 -0.00948157
000070 6c 63 90 3d f5 ad 36 bd 95 66 8a bd 1b 8c 3b 3d
       0.07050213 -0.044599492 -0.06757847 0.04578791
000080 34 9b f5 3c 3f 9f 84 bd 4b 9d 83 3d f3 c2 c7 bd
       0.029981233 -0.06475686 0.06426486 -0.097539805
000090 cb 1e a4 3d 9c cd ac 3d 3d 60 f4 3c 74 57 9c bd
       0.08013686 0.084376544 0.029831046 -0.07633868
0000a0 59 d6 5e 3d 76 0d 4a 3c cf 68 b0 3c 14 20 15 3d
       0.054403637 0.012332311 0.021534352 0.036407545
0000b0 95 f4 90 3d 1c cb 24 bd c9 0e 61 bd 38 11 93 3c
       0.070779 -0.040232763 -0.05494574 0.017952546
0000c0 93 57 f3 3c de 51 6d 3d 23 93 62 bd 7e 4b 20 3d
       0.029704845 0.057939403 -0.0553161 0.039134495
0000d0 0c a1 ea 3c b7 d7 b1 3c 6e ca a1 3d 10 0e 97 3c
       0.028641246 0.021709306 0.078999385 0.018439323
0000e0 f1 eb c0 bd 16 0c 3a bb 99 6a 32 bd 80 14 3d 3c
       -0.09420002 -0.0028388551 -0.04355869 0.011540532
0000f0 44 6e 01 bc b1 2e d2 bd 87 d7 b1 bc 2c e4 2a bc
       -0.0078998245 -0.10262812 -0.021709217 -0.010430377
000100 f1 16 01 bd 5c 13 c4 3d f0 e2 bc bc c8 b4 89 3d
       -0.03151602 0.09574005 -0.023057431 0.067239344
000110 cb c0 ce 3c fa 6a b8 bd ab fb b9 3c 74 c0 af 3d
       0.025238415 -0.09004779 0.022703012 0.085816294
000120 df 58 b9 bd 23 ca 8d bd 49 4b e4 3d b8 62 d0 3d
       -0.09050154 -0.0692332 0.11147172 0.10175079
000130 5d 8a 1a bd 41 57 c6 3d 5f d5 65 3b 32 cd ae bd
       -0.03772961 0.09684611 0.0035069806 -0.08535232
000140 2a 14 0a 3d e5 23 33 3d eb 64 d5 bc 57 92 e5 3c
       0.033710636 0.043735404 -0.026049098 0.028023882
000150 25 16 9a bd 74 f2 b3 3d 51 16 b5 3d 0f 02 84 3d
       -0.07523755 0.08786479 0.08842147 0.06445705
000160 bb 8e c2 3c 97 f9 03 3d b0 31 24 be 9b 9b b4 bd
       0.0237497 0.03222045 -0.1603458 -0.08818742
000170 70 8f 7a bc 5f ac e2 bd 77 bb 16 be 6c cb 4d 3d
       -0.015292987 -0.110680334 -0.1471995 0.050242826
000180 54 56 54 3d fa 76 d8 bd 77 32 81 3c 37 9e 8c 3d
       0.05184014 -0.10569568 0.015771134 0.068661146
000190 28 c8 f0 3d f1 cc 82 3d ab 79 eb 3d e7 f8 85 bc
       0.11756927 0.06386746 0.11497816 -0.016354037
0001a0 c3 98 a1 3d 59 ba b3 3d 83 6e c5 bd fd ce a3 bd
       0.07890465 0.08775777 -0.09640219 -0.07998464
0001b0 1f a8 2a 3c 44 3e fe 3c 5a 3f 80 bd e6 6d 58 bc
       0.01041606 0.03103555 -0.06262083 -0.013209796
0001c0 bf 3c d1 bc 54 56 6a 3c ac 3f 3e bd 5a 12 28 3d
       -0.025541661 0.014302809 -0.04644744 0.041033126
0001d0 e2 7d a8 3d 2e e8 9a bd 52 73 31 3b 6a da 1d 3c
       0.08227135 -0.07563816 0.0027076793 0.0096345935
0001e0 a4 1f a2 3c 7b 75 c6 3d 7e dc 00 3d be 6b ba bc
       0.019790478 0.09690376 0.031460278 -0.022756454
0001f0 30 d3 b0 3d e0 d6 4a bd 55 ae 05 bc 65 1f 0b 3d
       0.08634031 -0.049521327 -0.00815924 0.033965487
000200 82 ab cf bd 89 4c c4 3c aa a9 d4 bc 8c 78 17 bb
       -0.101401344 0.023962276 -0.025959808 -0.0023112623
000210 67 53 75 3d 54 49 95 3d bc 48 71 bd 4d 04 d7 bd
       0.05989399 0.07289377 -0.058907256 -0.10498867
000220 c3 3b 89 3d 0f 10 f0 3d 32 a0 b7 bd eb ba 94 3d
       0.06700852 0.11721813 -0.08966102 0.07262214
000230 9e f1 a3 bd 64 3d 02 3d 21 77 c9 3d ff 4a 8f 3d
       -0.08005069 0.031796828 0.09837175 0.06996726
000240 41 cd b2 bd 78 44 75 3d 5e 7c 57 3d 8b 50 2e bb
       -0.08730555 0.05987975 0.05260884 -0.00265983
000250 68 fd c7 3d 84 b5 64 bd a9 69 cb bc ef c5 5a bd
       0.0976513 -0.05583717 -0.024830656 -0.05341142
000260 a3 16 55 3c 94 17 ed 3c 1d cc 31 3c ef 33 73 bd
       0.013005885 0.028941907 0.010851887 -0.0593757
000270 3b a7 2c bd 20 87 2a 3d 7d 3e bf bd e0 69 87 bc
       -0.04215167 0.04163277 -0.093380906 -0.016529977
000280 09 59 07 bb 89 c5 33 bd ea bf 8a 3d 72 52 e5 3c
       -0.0020652434 -0.043889556 0.06774886 0.027993415
000290 d4 8b a6 3d 4b 31 ce 3c 1f 69 1d bd 78 70 e9 3d
       0.08132139 0.02516999 -0.03843033 0.11398405
0002a0 8a d7 0c 3d 35 c0 41 bc 86 e3 61 bd 52 cb 32 3d
       0.03438524 -0.011825611 -0.055148624 0.043650933
0002b0 63 0e ba bd b8 50 be 3c 1b b8 80 3d 7d 00 ad bd
       -0.09084775 0.02323185 0.06285115 -0.08447359
0002c0 77 7b 95 bd 13 47 a7 bd a4 30 ac 3d a2 d7 b2 3d
       -0.0729894 -0.08167853 0.08407715 0.08732535
0002d0 bc de ed bd 64 eb 2e 3c 3f 72 a6 bd b0 e9 5f be
       -0.11614749 0.010676239 -0.081272595 -0.21866488
0002e0 6c 4b 23 bd e0 0f 88 3b f3 a5 89 3d 7a f6 99 bc
       -0.03986685 0.004152283 0.067211054 -0.018794287
0002f0 ac dc b6 3d ca 14 a4 3d 53 8c 9e 3d d0 91 ed bd
       0.089288086 0.08011778 0.077416085 -0.11600077
000300 f7 0f c5 3d c4 0d bf bd 1f 12 a6 3d bd c5 93 bc
       0.09622186 -0.093287975 0.08108925 -0.018038625
000310 5b 84 ed bd 13 60 34 ba 3e c5 42 bd 53 74 f8 bd
       -0.115975104 -0.0006880771 -0.047551386 -0.12131562
000320 6e a7 4d bd 61 91 6a bc 0f e8 64 3d a2 68 35 bd
       -0.0502085 -0.014316888 0.05588537 -0.04428924
000330 84 59 1a 3d 07 cc 84 3a ed 60 a0 3c 39 8e 69 3c
       0.037683025 0.0010131606 0.019577468 0.0142551
000340 a8 77 85 bd 12 2c 90 bd 96 81 b5 bc df fd d9 bd
       -0.06516963 -0.07039656 -0.022156518 -0.10644125
000350 89 d3 39 bd 7d 5b 45 3b 86 b7 67 bd 59 4d 1a bd
       -0.04536775 0.0030114346 -0.056571506 -0.03767142
000360 df 6e 33 bc 4b 92 81 bc 2c a6 91 bd d5 7c 72 3b
       -0.010951727 -0.015816828 -0.07111773 0.0037000675
000370 03 5e a4 bb 9d ae 99 3c 0a c8 95 3b fb 73 54 bd
       -0.00501609 0.01876002 0.0045709657 -0.05186842
000380 15 1b 22 bd ae 4a dc 3b 21 0d 78 bd 44 95 34 3d
       -0.03957661 0.0067227697 -0.060559396 0.044087663
000390 2f 46 fb 3c 53 4b 8a 3d 22 39 a3 3d 4c 02 ba 3d
       0.030673115 0.06752648 0.079698816 0.09082469
0003a0 46 0b 11 3d ce cd fe bd 8a 76 31 3d f6 4b 91 bd
       0.03541114 -0.12441598 0.04332594 -0.070945665
0003b0 90 a5 06 bc b6 9f 05 bd bd e8 28 bd 4e e4 1c bd
       -0.008218184 -0.032623015 -0.04123758 -0.038303666
0003c0 e1 c2 c9 3d 76 00 71 3d 15 12 ef 3c 69 74 c3 3d
       0.09851623 0.05883833 0.029183427 0.09543688
0003d0 e5 9a cb bd 5a b4 5b 3c e5 15 81 3d 6b 46 85 3d
       -0.09941653 0.013409698 0.06303004 0.06507572
0003e0 01 90 b5 bd 06 24 05 3d 18 2f 87 bd 14 82 30 bc
       -0.08865357 0.032505058 -0.06600779 -0.010773201
0003f0 27 47 78 3c bb 54 39 bd e1 c5 75 bd dc 36 53 bd
       0.015153683 -0.04524682 -0.060003165 -0.05156599

conv_block_2.0.bias f4 [10]
000000 49 c1 66 3d 76 29 19 3c 58 e0 c5 3c f5 36 a3 3d
       0.056336675 0.009348264 0.024154827 0.079694666
000010 e4 e7 85 bd b4 fa 77 bd 9a a7 7e 3d 59 16 31 bb
       -0.0653837 -0.060541824 0.062171556 -0.0027021377
000020 2d 42 4a bd f4 9f bd bd
       -0.049379516 -0.09259024

conv_block_2.2.weight f4 [10, 10, 3, 3]
000000 e7 05 a9 3d 31 99 69 bc c7 b7 0e bd 52 84 77 bd
       0.08253079 -0.014257715 -0.034843232 -0.060428925
000010 89 4a 23 bd 17 15 00 3d 73 f8 f9 bc 29 94 78 3d
       -0.039866004 0.031270113 -0.030513978 0.06068817
000020 7c bc 07 bd 05 4b 18 bd 71 a5 27 3d c2 36 ac bc
       -0.033138737 -0.03718092 0.04092926 -0.021022204
000030 29 63 41 bd d6 f7 83 3c c9 8d 84 3d a5 30 8b bb
       -0.047213707 0.016109388 0.06472356 -0.0042477422
000040 64 3f 47 3d 43 4b 30 3d 33 7d 00 bd c3 96 a8 bc
       0.04864444 0.043040525 -0.0313694 -0.020579701
000050 76 1e 9a bc f9 ad 2a bd 03 1f 33 3d 8b 4e 52 3d
       -0.018813353 -0.04166982 0.043730747 0.051344436
000060 af 99 57 bc 71 c1 67 bd 32 ac 36 3d d4 72 b5 bd
       -0.0131592 -0.056580964 0.044597812 -0.08859792
000070 c8 bf 93 3d 4a 19 44 3d 4f 25 7e 3d e1 ed 4f bc
       0.07214314 0.04787568 0.0620473 -0.012690992
000080 28 85 b0 bd 14 56 83 3d ed 5b 6b bd 03 c7 70 3c
       -0.086191475 0.064129025 -0.057460714 0.014695886
000090 06 9c 74 3d 61 be c9 bd 70 39 e5 3b 0a 5f 19 bd
       0.059719108 -0.09850765 0.0069953725 -0.037444152
0000a0 57 c3 80 3d 0e 03 62 bd 1f 13 83 3d 79 9d 86 3d
       0.06287258 -0.055178694 0.064001314 0.06573004
0000b0 d6 34 6e 3d a3 9a d7 3d 86 f2 09 bc 5f b5 91 bd
       0.058155857 0.105275415 -0.0084196385 -0.07114672
0000c0 b6 f3 a7 3d cf 5b 0b 3d 7d 3e db bc ac ae 9b bd
       0.08200781 0.034023102 -0.026763195 -0.076016754
0000d0 16 07 43 bd 27 88 d1 bc 70 ac cf 3d 2d 4c 93 3d
       -0.04761418 -0.025577618 0.10140312 0.07192264
0000e0 a7 83 94 3d 52 81 82 3d 4a 40 9b bd 14 12 6a bd
       0.07251673 0.06372322 -0.075806215 -0.057146147
0000f0 84 36 77 bd c5 c1 80 bd ed 8d 7e 3d dc fa 9d 3c
       -0.060354725 -0.062869586 0.06214707 0.019284658
000100 eb 54 86 3d 0b 14 d9 bc b2 63 dd bd 7f df 4a bd
       0.065591656 -0.026498815 -0.10810031 -0.04952955
000110 68 3e 56 3d 82 e8 54 3d 64 7e 84 3c 8b 9c 49 bd
       0.05230561 0.05197955 0.016173549 -0.049221557
000120 d7 06 e3 bd c2 6d 32 bd fa 1b 61 3d fa 26 2e bd
       -0.11085289 -0.043561704 0.05495832 -0.04251764
000130 da a3 9a 3d 44 c6 eb 3c 91 1f e6 bc 99 ee cf 3d
       0.075507835 0.028781064 -0.028091224 0.10152931
000140 c4 bc 0a bd 60 81 65 bb 2c 76 24 bd a0 c6 cc bd
       -0.033871427 -0.003501974 -0.04015176 -0.09998822
000150 30 3b 8b 3c 54 87 f9 3c 9b 61 59 bd 05 6e 84 3d
       0.016995996 0.030460037 -0.0530716 0.06466297
000160 9a a7 c1 bd fc 19 d0 bd f3 15 06 be c9 7e c1 bd
       -0.094557956 -0.10161206 -0.1309431 -0.094480105
000170 bb 63 75 bd cd c0 b8 bd 89 88 80 bc 61 e0 14 be
       -0.059909564 -0.09021149 -0.015690105 -0.14538719
000180 54 61 ab bc e3 30 3b bd 00 7e 81 bb 1a d5 a9 3d
       -0.020920433 -0.04570092 -0.003951788 0.08292599
000190 37 93 d3 3c 04 4b c8 bd 57 1a 09 be 80 fc 01 be
       0.025827033 -0.09779933 -0.13388954 -0.12693977
0001a0 a7 c4 13 be b0 d4 9f bc ed 17 d6 bd 5b 5d 94 bc
       -0.14430486 -0.019510597 -0.10453782 -0.018110922
0001b0 a4 57 56 3d 0c d8 e7 bc f5 d8 7c bc 84 9d bb 3c
       0.052329674 -0.028301261 -0.015432586 0.022902258
0001c0 aa 8d 35 bd f7 cc 45 3d 05 3f bf bd ce 27 04 3d
       -0.044324555 0.048291173 -0.09338192 0.032264523
0001d0 54 4c ce bd b4 a5 f2 bd 20 4e 61 bd 8a 98 a1 3c
       -0.10073152 -0.118480116 -0.055006146 0.019726057
0001e0 ac be fc 3c 5e a0 c1 bc 04 e2 65 bd 4e f3 5a bd
       0.030852638 -0.02363604 -0.05612375 -0.05345469
0001f0 a1 87 c6 bd 6b 50 78 bd 70 a7 ee bb 49 b4 b7 3d
       -0.09693838 -0.060623568 -0.0072831437 0.089699335
000200 d2 ae 7c 3d 39 c0 ac bd ad f1 4a 3c 28 9e 58 bd
       0.06169016 -0.08435101 0.012386722 -0.052885205
000210 24 13 89 bc b5 92 ab bd cc 7a e0 3c 1a ce 53 bd
       -0.01673276 -0.083775915 0.027402304 -0.051710226
000220 95 1e d5 3d 42 57 f0 3d 06 9a 94 bd d3 3d cb bd
       0.10406224 0.11735393 -0.0725594 -0.099239014
000230 fc 67 0f 3d 5f 63 a3 bb f3 d7 cf 3c d1 c7 11 bd
       0.035011277 -0.004986211 0.025371527 -0.03559095
000240 cb 1b 44 bc 8e ae 16 be 3a 36 d2 bd bb c0 fd bd
       -0.011969517 -0.14715025 -0.10264249 -0.12390276
000250 d7 b5 b6 bc 34 1a 85 bd 0d 2a 16 be ee 11 e7 bd
       -0.022303505 -0.064991385 -0.14664479 -0.11282717
000260 69 4f bd bd bd 8b e4 bd f9 5e 2f bb 17 e4 91 3c
       -0.09243662 -0.111594655 -0.002675949 0.017808957
000270 86 bd e9 bc ce 23 58 bd 43 8c 77 bc 05 4f b6 bd
       -0.028532755 -0.05276852 -0.015109125 -0.089017905
000280 c8 04 98 bd 0b 34 7b bc b9 ae 8b 3d e1 c8 b0 3b
       -0.07422787 -0.015332232 0.06820435 0.0053950404
000290 0e 01 56 3d fa ea 29 bd 7c dd e5 bc 07 81 cd bd
       0.0522471 -0.041483857 -0.028059714 -0.10034376
0002a0 11 da b2 3d 45 3b 02 3e c0 17 11 bb 97 29 89 3d
       0.08732999 0.12717922 -0.00221394 0.06697386
0002b0 63 93 b0 3d 02 76 56 3d e2 5c 5e 3d 94 83 cd bd
       0.08621862 0.052358635 0.0542878 -0.10034862
0002c0 b8 da ca bd f8 b1 a5 bd 12 0c 07 3d c5 ba ba bd
       -0.099049985 -0.080905855 0.032970496 -0.09117655
0002d0 f9 9a 33 be 15 cf 15 be 72 8b 39 be b6 0a 38 bd
       -0.17539586 -0.14629777 -0.181196 -0.04493209
0002e0 92 19 6e bd 79 7a 00 be 88 58 10 3e 18 65 8a 3b
       -0.058129855 -0.1254672 0.14096272 0.004223477
0002f0 fb e3 65 ba bd 96 ee bc 4c 5d 31 bd d2 57 07 be
       -0.00087696285 -0.029124612 -0.043301865 -0.13217095
000300 4c 79 17 be 57 f0 55 be 2f 03 fe bd 78 9b ba 3d
       -0.14792365 -0.20892464 -0.12402951 0.091116846
000310 07 e7 f3 3c 7a 90 ba bd 9c 9f fd bd b0 cb 1c be
       0.029773248 -0.09109588 -0.12383959 -0.15312076
000320 55 02 cd bd d0 51 76 bb f2 11 ff bd a7 77 0e be
       -0.100102104 -0.0037585385 -0.12454595 -0.13912831
000330 ab c7 42 3c 5b 67 e2 bd b8 04 e4 bd a6 81 23 be
       0.011888425 -0.1105487 -0.111337125 -0.15967426
000340 0f 28 da bd 71 59 bb 3c ce 3a d6 bc 56 34 b7 bd
       -0.10652172 0.022869797 -0.026151087 -0.08945529
000350 fd 2e 4e bd 65 ff 4e 3c 58 b3 73 bd cf fb 1c be
       -0.05033778 0.012634133 -0.059497207 -0.15330432
000360 58 01 85 bd 4d a8 92 bd a0 69 2f bb 80 9d c5 bd
       -0.06494397 -0.07161007 -0.0026765838 -0.09649181
000370 da 06 ed bb 96 e1 1d bd 3b db d3 3d 91 78 af 3d
       -0.007233483 -0.038545214 0.10344549 0.08567918
000380 8a c9 7a 3d db 77 f7 3c 7c ca 0b bd c5 06 8e 3d
       0.06122736 0.030208519 -0.03412865 0.06934885
000390 18 28 95 bd 53 25 38 bd 12 5c 3a bd 74 a8 aa b9
       -0.07283038 -0.04495747 -0.04549796 -0.00032550434
0003a0 97 09 f8 bd 21 01 9d 3d 43 5e 17 bb 34 b9 1e be
       -0.12111204 0.07666231 -0.0023096956 -0.15500337
0003b0 50 bd 72 bd 53 ed 54 bd 2e 45 97 bd 02 d2 8d bd
       -0.059262574 -0.051984143 -0.07386242 -0.069248214
0003c0 5f 54 06 3e bb fe ff 3c 3e 8b 8a bd ef 6b 2c bd
       0.13118123 0.031249395 -0.067648396 -0.04209512
0003d0 41 b1 33 3d c6 d3 9e 3c ef ec 35 3c 93 89 4c bc
       0.043870214 0.01938809 0.011103853 -0.012483972
0003e0 89 43 53 bd 9c 4d 7e bc 6b d7 30 bd d8 f2 6a 3b
       -0.05157808 -0.015521433 -0.04317419 0.0035850313
0003f0 bc 82 f2 3c b3 67 d9 3d 40 14 c3 bc 46 51 97 bc
       0.029603355 0.10615482 -0.023813367 -0.018471371

conv_block_2.2.bias f4 [10]
000000 f2 08 30 3d 99 0c 25 3e 17 24 01 3e c1 a4 c4 bd
       0.04297728 0.16118087 0.12611423 -0.09601737
000010 78 1d d6 b6 3b 6a 8f bd 95 e2 3e bd 33 2d bc 3d
       -6.3811276e-06 -0.07002684 -0.046602804 0.091883086
000020 e3 5a 86 bd 0b 9b 9a bd
       -0.06560304 -0.07549103

classifier.1.weight f4 [3, 1690]
000000 11 e9 0f 39 61 7c 3c 3d fc 89 07 3d 72 a8 31 3d
       0.00013724367 0.046017054 0.033090577 0.043373533
000010 7b ad 8a 3c a7 be a1 bc f9 dc 6e 3c 5b 54 a1 3c
       0.016928425 -0.01974423 0.014579051 0.019693544
000020 1a a6 5a 3c ae b1 4c 3c 40 c9 ef bb 31 2a 1c 3c
       0.013345266 0.012493534 -0.007317692 0.009531544
000030 c8 6c ea 3c 81 8a ba 3b 28 f3 c1 3c 92 25 07 3c
       0.028616324 0.0056927805 0.023675516 0.008248704
000040 db eb 59 3c a1 9a 4d bc 9c 38 19 bd 5f 1b e5 bc
       0.013300861 -0.012549073 -0.037407503 -0.027967153
000050 fb 12 1b bb a3 9a 60 bc 6e fa 87 bb d8 1b 94 bc
       -0.0023662436 -0.013708743 -0.0041497266 -0.018079683
000060 eb 6d b8 3c 50 7a 25 3a 43 4a 37 39 8d 1d 8a b8
       0.02251335 0.00063124765 0.00017479905 -6.585857e-05
000070 c3 60 ca bc 19 e6 99 bc 6b fc 3d bc a9 47 fc bb
       -0.024704343 -0.018786477 -0.011595826 -0.0076989722
000080 2b 85 05 bd 66 91 16 bc 68 de 06 bd 4f 6a 5b 3b
       -0.032597702 -0.009189939 -0.032926947 0.0033480113
000090 a8 a8 d4 3b d0 da 89 bc 13 50 c8 bc 91 a9 e6 bc
       0.006489832 -0.01682797 -0.024452245 -0.028157027
0000a0 23 58 01 3c 00 ed 99 3c 43 29 c6 3c 3d 59 ce 3b
       0.007894549 0.018789768 0.024189597 0.006297259
0000b0 d6 11 ba 3c 28 ab 09 3d b9 7f a4 3b 0c a8 0e bc
       0.022713583 0.033610493 0.0050201085 -0.008707058
0000c0 fc d6 ae bc c0 0f 55 3c 7f be c4 ba 1d 86 d6 ba
       -0.021342747 0.013004243 -0.0015010386 -0.0016366873
0000d0 dc aa 23 bc bd e5 b5 3c 64 3d c5 bb c5 01 00 bb
       -0.0099894665 0.022204274 -0.006019281 -0.0019532305
0000e0 61 43 f2 3c 91 e8 1a ba ea 3c 61 3d 11 b7 0c 3d
       0.029573144 -0.0005909289 0.054989733 0.034354273
0000f0 cd 73 f6 3b cc 5c 11 3d 27 a7 23 3c c7 e7 c4 3b
       0.0075211287 0.03548889 0.009988583 0.0060090753
000100 4d 25 cb bc 28 b9 d1 bc 38 d4 8e 3c ca c8 36 3d
       -0.02479806 -0.025600985 0.017435178 0.04462508
000110 fb 7a 97 3c 06 c0 65 3a 40 82 b0 3c 8d 1e 28 3d
       0.018491259 0.00087642705 0.021546483 0.04104476
000120 cf 19 f5 3b e0 d6 06 bc 27 d1 54 bb 13 10 39 3c
       0.0074798833 -0.008229941 -0.0032473297 0.011295336
000130 88 87 82 3c 6b 42 bd 3b 73 cd 5a 3c 1e 54 f5 3c
       0.015933767 0.00577574 0.013354647 0.029947337
000140 0e 34 14 3d bd 8f a9 bb 71 5f bb bb 04 b6 b0 3c
       0.036182456 -0.0051746056 -0.0057181646 0.021571167
000150 a5 f0 b2 3c 9a 8a 51 3c 51 f0 80 bc be 83 04 3d
       0.021843264 0.012789393 -0.015739592 0.0323522
000160 a1 b2 0f ba 37 e6 a4 3c 07 fb 87 3b 42 a3 cf 3c
       -0.0005481635 0.020129306 0.004149798 0.025346402
000170 4d b9 ad bb 26 c7 20 3c ee 48 de 3c ba 59 fb 3c
       -0.0053016306 0.009813106 0.027134385 0.030682433
000180 69 79 27 3c 6a f0 3c 3d cd 72 a9 3c 28 3b d1 3b
       0.0102218175 0.046127714 0.020684624 0.006385226
000190 f5 03 55 3c 2d 4e ac 3c 56 07 36 3c fe 2a 90 3c
       0.013001432 0.02103337 0.011110147 0.017598625
0001a0 31 03 66 3b ef 60 8e 3c 8a 2d 36 3c 34 86 6e 3d
       0.0035097117 0.017380206 0.011119256 0.058233455
0001b0 53 3b e3 3c 6d 61 7d 3c 9d c1 30 3d b1 85 11 3d
       0.027738249 0.015465123 0.043153394 0.03552789
0001c0 4e 78 09 3d e9 4e 19 3c e2 32 da 3c e7 1f 96 3b
       0.033561997 0.009357193 0.026635591 0.00458144
0001d0 a8 33 3f bb 4f f6 c7 3b 40 9e 09 3d 37 89 61 3d
       -0.0029175077 0.0061023603 0.033598185 0.0550625
0001e0 f2 d3 fa 3c 93 43 09 3d 1f bf 35 3d a6 2a a3 3c
       0.030618642 0.03351171 0.04437172 0.019917797
0001f0 c6 77 f8 3c d6 45 6f 3c b0 55 c3 3c f5 c5 14 bb
       0.03033055 0.0146040525 0.02384457 -0.0022701
000200 1b 4f 37 3c dd 8a 2e bb c3 c3 d6 bc 46 25 4d bc
       0.011188294 -0.0026633062 -0.026216393 -0.012521094
000210 7e 59 0f bb 61 49 c7 3b 07 97 bb 3c 51 39 d8 3c
       -0.002187341 0.0060817455 0.022899164 0.026394518
000220 30 1e 4b 3d 61 76 06 3c 59 fd e8 3c 6e 1d a5 bb
       0.049589336 0.008206935 0.028441118 -0.0050389087
000230 22 44 17 3c 55 6d a8 3c 88 b8 38 bc cc 87 ce 3b
       0.009232553 0.020559946 -0.011274464 0.0063028093
000240 4f bc b2 bc 32 e8 9f 3c b9 9d 07 3c be ad 20 3d
       -0.021818308 0.019519899 0.00827735 0.039228193
000250 f7 46 26 3d 31 49 21 3c 9d d0 4d 3c 0e c4 a9 3c
       0.04059502 0.00984411 0.012561944 0.020723369
000260 a2 fb c2 bb a4 6e 27 3d 40 18 0f 3c 08 b0 ff 3c
       -0.005950407 0.040877 0.008733809 0.031211868
000270 b9 0e 13 bd bf d8 0b bd 68 82 10 bc b1 2a 9f bc
       -0.035902712 -0.034142252 -0.008820154 -0.019429537
000280 34 6a f5 3c 06 b0 ef 3c 1b ff 19 3d 1c d1 2a bc
       0.029957868 0.02925874 0.037596803 -0.010425832
000290 5b 28 5e 3c 4a 5c af 3c bd 5b 2d 3d c0 38 ba 3b
       0.013559426 0.021406312 0.042323817 0.0056830347
0002a0 7c 68 7c 3c 65 93 61 bd e4 38 94 bd c0 cf b4 bd
       0.01540577 -0.055072207 -0.072374135 -0.08828688
0002b0 ce e7 33 bd 3c 09 c1 bc 1b cd 0b 3c 11 a0 ae 3c
       -0.043922238 -0.023563974 0.008532788 0.02131656
0002c0 68 2c 9d 3c da 7b eb bc 64 f2 6b bd 67 4e 43 bd
       0.019186214 -0.02874558 -0.05760421 -0.047682192
0002d0 c9 bd cf bd 44 a9 5b bd fb 9d 84 bd 3c e0 b4 3c
       -0.101436205 -0.05362822 -0.06475445 0.02207958
0002e0 68 7f f6 bc 95 fe 4c bd 38 8e 61 bd 9e bd 6c bd
       -0.030090049 -0.050047476 -0.05506727 -0.05779802
0002f0 19 67 31 3d f5 2b e0 3c 85 94 28 bd fe 41 09 bd
       0.043311212 0.02736471 -0.041157264 -0.0335102
000300 bc 3a da bb 8b 70 af bc 0f e9 68 bc a0 ca b4 3b
       -0.0066598337 -0.02141597 -0.014215722 0.005517319
000310 af 1d a1 3c 5c a7 1b 3c 41 d3 81 bd f6 44 b3 bd
       0.019667475 0.009500351 -0.063391216 -0.08753388
000320 dc e9 8a bd 89 0c 65 3b c6 64 86 bc 65 3a 7c bd
       -0.067828864 0.0034950098 -0.016405474 -0.061579127
000330 6f 57 1f bd e8 9f e9 bc 7f fe 96 3c ce 28 b9 3d
       -0.038901743 -0.028518632 0.0184319 0.09040986
000340 5e 43 f4 bc 85 07 2a bd b2 85 7b bc 69 5f bf bc
       -0.02981728 -0.041511077 -0.0153517 -0.023360925
000350 f8 f5 6a bd e9 47 11 be e8 da f8 bd 58 6f b1 bd
       -0.05736348 -0.14187588 -0.12151128 -0.08663815
000360 64 0b f2 bd 3a 93 b1 bd 3c b7 f6 bd 14 cb 25 bd
       -0.11818579 -0.08670659 -0.12046668 -0.040476874
000370 e5 2b 42 3d 53 64 38 bc f7 09 fd bc d4 a1 af 3c
       0.047405142 -0.011254388 -0.03088854 0.02143947
000380 92 c0 76 bc b8 7a 6a bd f5 c7 fe bd 17 1f 09 be
       -0.015060561 -0.05724594 -0.124404825 -0.13390766
000390 d6 5c aa bd 16 61 76 bd 20 7e db bd 0a 84 bf bd
       -0.08318488 -0.060151182 -0.10717416 -0.09351356
0003a0 ba 07 1b bd 0d f6 f5 3c 52 8f 85 3c ff 62 0d bd
       -0.037849165 0.030024553 0.016303692 -0.03451824
0003b0 83 71 b6 bd a0 da 93 bd 3a c0 a8 bd f2 df e1 bd
       -0.089083694 -0.07219434 -0.08239789 -0.11029042
0003c0 c1 d7 f4 bc 0e e3 f7 bb 78 55 0e bd bb b2 8b bd
       -0.029888036 -0.007564909 -0.034749478 -0.068211995
0003d0 e5 33 c5 bd c5 02 03 bd d2 99 8a 3b 8d 69 1b bd
       -0.09629039 -0.031985063 0.0042297626 -0.037942458
0003e0 21 ca 10 bc 5f 29 95 bc d5 f1 bb bc 5a 96 87 bd
       -0.008837254 -0.018208204 -0.022942463 -0.06620474
0003f0 6d b8 70 bd ae fc c3 bd 03 d2 a4 bd 15 07 a4 bd
       -0.058769632 -0.09569679 -0.08047869 -0.08009163

classifier.1.bias f4 [3]
000000 b5 7b a5 3d 55 27 89 bd 7d 3d 22 bd
       0.08080236 -0.06696955 -0.03960942
